…
      benign       0.96      0.97      0.96      1767
      attack       0.92      0.89      0.90       679

    accuracy                           0.95      2446
   macro avg       0.94      0.93      0.93      2446
weighted avg       0.95      0.95      0.95      2446

Saved → dns_tunnel_rf.pkl

── Transformer (Binary Classifier) ───────────────────────────
Model: "functional"
┏━━━━━━━━━━━━━━━━━━━━━┳━━━━━━━━━━━━━━━━━━━┳━━━━━━━━━━━━┳━━━━━━━━━━━━━━━━━━━┓
┃ Layer (type)        ┃ Output Shape      ┃    Param # ┃ Connected to      ┃
┡━━━━━━━━━━━━━━━━━━━━━╇━━━━━━━━━━━━━━━━━━━╇━━━━━━━━━━━━╇━━━━━━━━━━━━━━━━━━━┩
│ input_layer         │ (None, 10, 8)     │          0 │ -                 │
│ (InputLayer)        │                   │            │                   │
├─────────────────────┼───────────────────┼────────────┼───────────────────┤
│ layer_normalization │ (None, 10, 8)     │         16 │ input_layer[0][0] │
│ (LayerNormalizatio… │                   │            │                   │
├─────────────────────┼───────────────────┼────────────┼───────────────────┤
│ multi_head_attenti… │ (None, 10, 8)     │      2,248 │ layer_normalizat… │
│ (MultiHeadAttentio… │                   │            │ layer_normalizat… │
├─────────────────────┼───────────────────┼────────────┼───────────────────┤
│ dropout_1 (Dropout) │ (None, 10, 8)     │          0 │ multi_head_atten… │
├─────────────────────┼───────────────────┼────────────┼───────────────────┤
│ add (Add)           │ (None, 10, 8)     │          0 │ dropout_1[0][0],  │
│                     │                   │            │ input_layer[0][0] │
├─────────────────────┼───────────────────┼────────────┼───────────────────┤
│ layer_normalizatio… │ (None, 10, 8)     │         16 │ add[0][0]         │
│ (LayerNormalizatio… │                   │            │                   │
├─────────────────────┼───────────────────┼────────────┼───────────────────┤
│ conv1d (Conv1D)     │ (None, 10, 64)    │        576 │ layer_normalizat… │
├─────────────────────┼───────────────────┼────────────┼───────────────────┤
│ dropout_2 (Dropout) │ (None, 10, 64)    │          0 │ conv1d[0][0]      │
├─────────────────────┼───────────────────┼────────────┼───────────────────┤
│ conv1d_1 (Conv1D)   │ (None, 10, 8)     │        520 │ dropout_2[0][0]   │
├─────────────────────┼───────────────────┼────────────┼───────────────────┤
│ add_1 (Add)         │ (None, 10, 8)     │          0 │ conv1d_1[0][0],   │
│                     │                   │            │ add[0][0]         │
├─────────────────────┼───────────────────┼────────────┼───────────────────┤
│ layer_normalizatio… │ (None, 10, 8)     │         16 │ add_1[0][0]       │
│ (LayerNormalizatio… │                   │            │                   │
├─────────────────────┼───────────────────┼────────────┼───────────────────┤
│ multi_head_attenti… │ (None, 10, 8)     │      2,248 │ layer_normalizat… │
│ (MultiHeadAttentio… │                   │            │ layer_normalizat… │
├─────────────────────┼───────────────────┼────────────┼───────────────────┤
│ dropout_4 (Dropout) │ (None, 10, 8)     │          0 │ multi_head_atten… │
├─────────────────────┼───────────────────┼────────────┼───────────────────┤
│ add_2 (Add)         │ (None, 10, 8)     │          0 │ dropout_4[0][0],  │
│                     │                   │            │ add_1[0][0]       │
├─────────────────────┼───────────────────┼────────────┼───────────────────┤
│ layer_normalizatio… │ (None, 10, 8)     │         16 │ add_2[0][0]       │
│ (LayerNormalizatio… │                   │            │                   │
├─────────────────────┼───────────────────┼────────────┼───────────────────┤
│ conv1d_2 (Conv1D)   │ (None, 10, 64)    │        576 │ layer_normalizat… │
├─────────────────────┼───────────────────┼────────────┼───────────────────┤
│ dropout_5 (Dropout) │ (None, 10, 64)    │          0 │ conv1d_2[0][0]    │
├─────────────────────┼───────────────────┼────────────┼───────────────────┤
│ conv1d_3 (Conv1D)   │ (None, 10, 8)     │        520 │ dropout_5[0][0]   │
├─────────────────────┼───────────────────┼────────────┼───────────────────┤
│ add_3 (Add)         │ (None, 10, 8)     │          0 │ conv1d_3[0][0],   │
│                     │                   │            │ add_2[0][0]       │
├─────────────────────┼───────────────────┼────────────┼───────────────────┤
│ global_average_poo… │ (None, 8)         │          0 │ add_3[0][0]       │
│ (GlobalAveragePool… │                   │            │                   │
├─────────────────────┼───────────────────┼────────────┼───────────────────┤
│ dense (Dense)       │ (None, 64)        │        576 │ global_average_p… │
├─────────────────────┼───────────────────┼────────────┼───────────────────┤
│ dropout_6 (Dropout) │ (None, 64)        │          0 │ dense[0][0]       │
├─────────────────────┼───────────────────┼────────────┼───────────────────┤
│ dense_1 (Dense)     │ (None, 1)         │         65 │ dropout_6[0][0]   │
└─────────────────────┴───────────────────┴────────────┴───────────────────┘
 Total params: 7,393 (28.88 KB)
 Trainable params: 7,393 (28.88 KB)
 Non-trainable params: 0 (0.00 B)
Epoch 1/30
W0000 00:00:1773817964.007547   24213 cpu_allocator_impl.cc:82] Allocation of 16343040 exceeds 10% of free system memory.
W0000 00:00:1773817964.008490   24214 cpu_allocator_impl.cc:82] Allocation of 16343040 exceeds 10% of free system memory.
…
E0000 00:00:1773817988.508330   24407 cuda_platform.cc:52] failed call to cuInit: INTERNAL: CUDA error: Failed call to cuInit: UNKNOWN ERROR (303)
[*] Loaded 8152 data points from /home/paifern/DNS-_raffic-_Anomaly_Detection/data/merged_features_all.json
[*] Normalization params saved → model/dns_trafficformer_norm.json
[*] Train windows: 6506  |  Val windows: 1627
Model: "trafficformer_reconstruction"
┏━━━━━━━━━━━━━━━━━━━━━┳━━━━━━━━━━━━━━━━━━━┳━━━━━━━━━━━━┳━━━━━━━━━━━━━━━━━━━┓
┃ Layer (type)        ┃ Output Shape      ┃    Param # ┃ Connected to      ┃
┡━━━━━━━━━━━━━━━━━━━━━╇━━━━━━━━━━━━━━━━━━━╇━━━━━━━━━━━━╇━━━━━━━━━━━━━━━━━━━┩
│ input_layer         │ (None, 20, 1)     │          0 │ -                 │
│ (InputLayer)        │                   │            │                   │
├─────────────────────┼───────────────────┼────────────┼───────────────────┤
│ layer_normalization │ (None, 20, 1)     │          2 │ input_layer[0][0] │
│ (LayerNormalizatio… │                   │            │                   │
├─────────────────────┼───────────────────┼────────────┼───────────────────┤
│ multi_head_attenti… │ (None, 20, 1)     │      1,345 │ layer_normalizat… │
│ (MultiHeadAttentio… │                   │            │ layer_normalizat… │
├─────────────────────┼───────────────────┼────────────┼───────────────────┤
│ dropout_1 (Dropout) │ (None, 20, 1)     │          0 │ multi_head_atten… │
├─────────────────────┼───────────────────┼────────────┼───────────────────┤
│ add (Add)           │ (None, 20, 1)     │          0 │ dropout_1[0][0],  │
│                     │                   │            │ input_layer[0][0] │
├─────────────────────┼───────────────────┼────────────┼───────────────────┤
│ layer_normalizatio… │ (None, 20, 1)     │          2 │ add[0][0]         │
│ (LayerNormalizatio… │                   │            │                   │
├─────────────────────┼───────────────────┼────────────┼───────────────────┤
│ conv1d (Conv1D)     │ (None, 20, 3)     │          6 │ layer_normalizat… │
├─────────────────────┼───────────────────┼────────────┼───────────────────┤
│ dropout_2 (Dropout) │ (None, 20, 3)     │          0 │ conv1d[0][0]      │
├─────────────────────┼───────────────────┼────────────┼───────────────────┤
│ conv1d_1 (Conv1D)   │ (None, 20, 1)     │          4 │ dropout_2[0][0]   │
├─────────────────────┼───────────────────┼────────────┼───────────────────┤
│ add_1 (Add)         │ (None, 20, 1)     │          0 │ conv1d_1[0][0],   │
│                     │                   │            │ add[0][0]         │
├─────────────────────┼───────────────────┼────────────┼───────────────────┤
│ layer_normalizatio… │ (None, 20, 1)     │          2 │ add_1[0][0]       │
│ (LayerNormalizatio… │                   │            │                   │
├─────────────────────┼───────────────────┼────────────┼───────────────────┤
│ multi_head_attenti… │ (None, 20, 1)     │      1,345 │ layer_normalizat… │
│ (MultiHeadAttentio… │                   │            │ layer_normalizat… │
├─────────────────────┼───────────────────┼────────────┼───────────────────┤
│ dropout_4 (Dropout) │ (None, 20, 1)     │          0 │ multi_head_atten… │
├─────────────────────┼───────────────────┼────────────┼───────────────────┤
│ add_2 (Add)         │ (None, 20, 1)     │          0 │ dropout_4[0][0],  │
│                     │                   │            │ add_1[0][0]       │
├─────────────────────┼───────────────────┼────────────┼───────────────────┤
│ layer_normalizatio… │ (None, 20, 1)     │          2 │ add_2[0][0]       │
│ (LayerNormalizatio… │                   │            │                   │
├─────────────────────┼───────────────────┼────────────┼───────────────────┤
│ conv1d_2 (Conv1D)   │ (None, 20, 3)     │          6 │ layer_normalizat… │
├─────────────────────┼───────────────────┼────────────┼───────────────────┤
│ dropout_5 (Dropout) │ (None, 20, 3)     │          0 │ conv1d_2[0][0]    │
├─────────────────────┼───────────────────┼────────────┼───────────────────┤
│ conv1d_3 (Conv1D)   │ (None, 20, 1)     │          4 │ dropout_5[0][0]   │
├─────────────────────┼───────────────────┼────────────┼───────────────────┤
│ add_3 (Add)         │ (None, 20, 1)     │          0 │ conv1d_3[0][0],   │
│                     │                   │            │ add_2[0][0]       │
├─────────────────────┼───────────────────┼────────────┼───────────────────┤
│ layer_normalizatio… │ (None, 20, 1)     │          2 │ add_3[0][0]       │
│ (LayerNormalizatio… │                   │            │                   │
├─────────────────────┼───────────────────┼────────────┼───────────────────┤
│ multi_head_attenti… │ (None, 20, 1)     │      1,345 │ layer_normalizat… │
│ (MultiHeadAttentio… │                   │            │ layer_normalizat… │
├─────────────────────┼───────────────────┼────────────┼───────────────────┤
│ dropout_7 (Dropout) │ (None, 20, 1)     │          0 │ multi_head_atten… │
├─────────────────────┼───────────────────┼────────────┼───────────────────┤
│ add_4 (Add)         │ (None, 20, 1)     │          0 │ dropout_7[0][0],  │
│                     │                   │            │ add_3[0][0]       │
├─────────────────────┼───────────────────┼────────────┼───────────────────┤
│ layer_normalizatio… │ (None, 20, 1)     │          2 │ add_4[0][0]       │
│ (LayerNormalizatio… │                   │            │                   │
├─────────────────────┼───────────────────┼────────────┼───────────────────┤
│ conv1d_4 (Conv1D)   │ (None, 20, 3)     │          6 │ layer_normalizat… │
├─────────────────────┼───────────────────┼────────────┼───────────────────┤
│ dropout_8 (Dropout) │ (None, 20, 3)     │          0 │ conv1d_4[0][0]    │
├─────────────────────┼───────────────────┼────────────┼───────────────────┤
│ conv1d_5 (Conv1D)   │ (None, 20, 1)     │          4 │ dropout_8[0][0]   │
├─────────────────────┼───────────────────┼────────────┼───────────────────┤
│ add_5 (Add)         │ (None, 20, 1)     │          0 │ conv1d_5[0][0],   │
│                     │                   │            │ add_4[0][0]       │
├─────────────────────┼───────────────────┼────────────┼───────────────────┤
│ dense (Dense)       │ (None, 20, 64)    │        128 │ add_5[0][0]       │
├─────────────────────┼───────────────────┼────────────┼───────────────────┤
│ dropout_9 (Dropout) │ (None, 20, 64)    │          0 │ dense[0][0]       │
├─────────────────────┼───────────────────┼────────────┼───────────────────┤
│ dense_1 (Dense)     │ (None, 20, 1)     │         65 │ dropout_9[0][0]   │
└─────────────────────┴───────────────────┴────────────┴───────────────────┘
 Total params: 4,270 (16.68 KB)
 Trainable params: 4,270 (16.68 KB)
 Non-trainable params: 0 (0.00 B)
Epoch 1/200
W0000 00:00:1773817993.764135   24415 cpu_allocator_impl.cc:82] Allocation of 22740240 exceeds 10% of free system memory.
W0000 00:00:1773817993.764198   24416 cpu_allocator_impl.cc:82] Allocation of 22740240 exceeds 10% of free system memory.
…
